share_price_model.pth (torch, 3180 bytes, 5 tensors)

lstm.weight_ih_l0 f4 [16, 1]
0	0x3f871a68	1.0554934
1	0x4034bd36	2.8240485
2	0xbeda63d2	-0.42654282
3	0x3d3b257d	0.04569005
4	0x3fb5e7a9	1.4211322
5	0x3fd9add3	1.7006172
6	0xbee3372d	-0.44378033
7	0x3f2c24ec	0.6724384
8	0xbf8fde82	-1.1239779
9	0xbf2383c7	-0.6387295
10	0xbf27a217	-0.65481704
11	0x3e517a20	0.20456743
12	0x40065b9d	2.0993416
13	0x40021f88	2.0331745
14	0xbf6b83d4	-0.9199803
15	0x3fb9ff19	1.4530975

lstm.weight_hh_l0 f4 [16, 4]
0	0x3f13e30f	0.5776834
1	0xbe81752c	-0.25284708
2	0x3f8c861b	1.0978426
3	0xbe8b2755	-0.27178445
4	0x3f4c0677	0.79697365
5	0x3fe21b62	1.7664607
6	0x3f71086a	0.94153464
7	0xbeb4c04c	-0.3530296
8	0x3f317246	0.6931499
9	0x3f9a1657	1.2038068
10	0x3f1fa461	0.623602
11	0xbf8a854d	-1.082193
12	0xbd82950f	-0.06376087
13	0xbf0292f6	-0.51005495
14	0x3f2bc3f0	0.6709585
15	0x3e4916dd	0.19637628
16	0xba56d6de	-0.000819547
17	0xbdbf53ae	-0.093421325
18	0x3f12f652	0.57407105
19	0x3e617ce1	0.22020294
20	0xbeac08ba	-0.33600408
21	0xbf81024d	-1.0078827
22	0x3f70a1fc	0.9399717
23	0xbdd6463f	-0.10462617
24	0x3f1ac3bc	0.60454917
25	0x3fb300e5	1.3984648
26	0x3f9fa57d	1.2472378
27	0xbf8d74fb	-1.1051325
28	0x3e05101e	0.1299443
29	0xbf29d512	-0.66340744
30	0x3dc731c8	0.09726292
31	0x3e70c72c	0.23513478
32	0xbf0bf789	-0.54674584
33	0x3e9f5d2c	0.31125772
34	0x3f59d583	0.8509142
35	0xbef6e972	-0.4822498
36	0xbf245397	-0.6419005
37	0xbed6a085	-0.41919342
38	0x3fa00dba	1.2504189
39	0x3ec96de0	0.3934164
40	0xbf1143f3	-0.5674431
41	0x3f05ef0e	0.52317894
42	0x3f01d2a8	0.5071206
43	0xbf0645d0	-0.52450275
44	0x3f004ab8	0.5011401
45	0x3de6a589	0.11262042
46	0xbe59b199	-0.21259154
47	0xbd17d31b	-0.03706656
48	0xbeccfff5	-0.4003903
49	0xbea38a2e	-0.3194136
50	0x3e9c42d4	0.30519736
51	0x3f1c0dbf	0.60958475
52	0x3f148211	0.58010966
53	0x3f580cd6	0.84394586
54	0x3fbe9ec6	1.4892204
55	0xbf104111	-0.56349283
56	0xbf7a4172	-0.9775611
57	0xc00a8caf	-2.1648366
58	0xbe8397ad	-0.25701657
59	0x3eca734d	0.39541093
60	0xbf113288	-0.5671773
61	0xbf97f1ab	-1.1870626
62	0xbf1a29bf	-0.6021995
63	0x3d6a1143	0.05714537

lstm.bias_ih_l0 f4 [16]
0	0xbe8d36dc	-0.27580917
1	0x3f370513	0.7149212
2	0x3f206cda	0.62666094
3	0xbe37b820	-0.17941332
4	0xbf02e156	-0.51125085
5	0x3f0260af	0.5092878
6	0x3f593420	0.8484516
7	0xbed17c7c	-0.40915287
8	0x3f0bf181	0.5466538
9	0x3f9c4d0b	1.2211012
10	0x3f951844	1.164803
11	0xbf5ebec0	-0.8700981
12	0xbf1afb30	-0.6053953
13	0x3f5625e6	0.8365158
14	0xbea9f694	-0.33195937
15	0xbf32fdbf	-0.69918436

lstm.bias_hh_l0 f4 [16]
0	0xbea085f0	-0.31352186
1	0x3f399d63	0.7250578
2	0x3f50393e	0.81337345
3	0xbe816567	-0.25272676
4	0xbf019616	-0.5061964
5	0xbeb2b650	-0.34904718
6	0x3ec98040	0.3935566
7	0xbf47136f	-0.7776403
8	0x3f1c3785	0.61022216
9	0x3f2f238a	0.68413603
10	0x3f0e8dff	0.5568542
11	0xbefc278a	-0.49248916
12	0xbef96f66	-0.48717803
13	0x3f02ec58	0.5114188
14	0xbf2d014c	-0.67580104
15	0xbfa63122	-1.2983744

fc.weight f4 [1, 4]
0	0x3ed4596a	0.41474468
1	0x3f668f42	0.90062344
2	0xbf27e87e	-0.6558913
3	0x3c8178b9	0.015804635
